_________________________________________________________________
Layer (type)                 Output Shape              Param #   
=================================================================
image_input (InputLayer)     (None, 224, 224, 3)       0         
_________________________________________________________________
block1_conv1 (Conv2D)        (None, 224, 224, 64)      1792      
_________________________________________________________________
block1_conv2 (Conv2D)        (None, 224, 224, 64)      36928     
_________________________________________________________________
block1_pool (MaxPooling2D)   (None, 112, 112, 64)      0         
_________________________________________________________________
block2_conv1 (Conv2D)        (None, 112, 112, 128)     73856     
_________________________________________________________________
block2_conv2 (Conv2D)        (None, 112, 112, 128)     147584    
_________________________________________________________________
block2_pool (MaxPooling2D)   (None, 56, 56, 128)       0         
_________________________________________________________________
block3_conv1 (Conv2D)        (None, 56, 56, 256)       295168    
_________________________________________________________________
block3_conv2 (Conv2D)        (None, 56, 56, 256)       590080    
_________________________________________________________________
block3_conv3 (Conv2D)        (None, 56, 56, 256)       590080    
_________________________________________________________________
block3_pool (MaxPooling2D)   (None, 28, 28, 256)       0         
_________________________________________________________________
block4_conv1 (Conv2D)        (None, 28, 28, 512)       1180160   
_________________________________________________________________
block4_conv2 (Conv2D)        (None, 28, 28, 512)       2359808   
_________________________________________________________________
block4_conv3 (Conv2D)        (None, 28, 28, 512)       2359808   
_________________________________________________________________
block4_pool (MaxPooling2D)   (None, 14, 14, 512)       0         
_________________________________________________________________
block5_conv1 (Conv2D)        (None, 14, 14, 512)       2359808   
_________________________________________________________________
block5_conv2 (Conv2D)        (None, 14, 14, 512)       2359808   
_________________________________________________________________
block5_conv3 (Conv2D)        (None, 14, 14, 512)       2359808   
_________________________________________________________________
block5_pool (MaxPooling2D)   (None, 7, 7, 512)         0         
_________________________________________________________________
flatten (Flatten)            (None, 25088)             0         
_________________________________________________________________
bn_flatten (BatchNormalizati (None, 25088)             100352    
_________________________________________________________________
fc1 (Dense)                  (None, 64)                1605696   
_________________________________________________________________
bn1 (BatchNormalization)     (None, 64)                256       
_________________________________________________________________
fc2 (Dense)                  (None, 64)                4160      
_________________________________________________________________
bn2 (BatchNormalization)     (None, 64)                256       
_________________________________________________________________
fc3 (Dense)                  (None, 64)                4160      
_________________________________________________________________
bn3 (BatchNormalization)     (None, 64)                256       
_________________________________________________________________
fc_pose_utmx_utmy (Dense)    (None, 2)                 130       
=================================================================
Total params: 16,429,954
Trainable params: 0
Non-trainable params: 16,429,954
_________________________________________________________________
100%|██████████████████████████████████████| 1359/1359 [00:02<00:00, 562.44it/s]
100%|██████████████████████████████████████████| 27/27 [00:00<00:00, 425.28it/s]
Threshold: 50.5294765135
…
